Day 1/model_Themisto.pt (torch, 89310 bytes, 10 tensors)

conv1.weight f4 [16, 3, 3, 3]
000000 47 c0 0e 3e 04 9c 50 3d 24 7e 53 be a6 4d 35 be
       0.13940535 0.050930038 -0.20653588 -0.17705402
000010 8d d3 8e be 25 4d b0 3e b9 13 43 3e 72 64 d4 3e
       -0.27895775 0.34433857 0.19050492 0.41482884
000020 f4 9d 78 be 24 89 1f bd f4 70 83 3e da fe 3b be
       -0.24279004 -0.038949147 0.25672114 -0.18358937
000030 94 4e a5 3e d0 c2 e6 3d 15 56 7f be 9e f5 c6 bc
       0.32286513 0.11267626 -0.24935181 -0.024287041
000040 12 7c b1 bd 5d 2e 55 3e 2a 63 aa bc 54 1d a8 3d
       -0.08666243 0.20818467 -0.020799238 0.08208719
000050 59 72 82 3d e4 40 f6 3d c1 d8 bd bc 0d 18 35 bd
       0.06369466 0.12024096 -0.023174645 -0.04421239
000060 84 08 9a 3e d4 b9 0c be 15 5f e4 bd b0 bd 21 3d
       0.30084622 -0.13742763 -0.11150948 0.03948754
000070 03 f5 12 3e a8 e2 32 be 7f 73 ab 3e 33 e0 8e be
       0.14351277 -0.17469275 0.33486554 -0.27905425
000080 53 f5 1e 3d 6d 74 91 be bd 16 81 3e ec ef 28 3e
       0.03880818 -0.28409138 0.2521266 0.16497773
000090 83 4c a1 3e 24 32 93 be d0 8e 37 bd 7f 2d 46 be
       0.31503686 -0.28749192 -0.04481393 -0.19353293
0000a0 fe 75 46 3c f9 29 39 3e 9c 38 29 bd a0 12 17 3e
       0.0121130925 0.18082418 -0.041313753 0.14753199
0000b0 ea 72 3a bd 4e bf 6e be 46 3d 83 bd b8 26 96 3e
       -0.045519747 -0.23315164 -0.06408171 0.29326415
0000c0 dc f0 57 bd b8 c1 27 3e 79 b2 e0 bd 1d 0b 2f 3e
       -0.052719936 0.16382492 -0.10971541 0.17094083
0000d0 c9 f5 9e bd 05 27 72 bd d9 16 30 be aa 72 af bd
       -0.077617235 -0.059119243 -0.17196216 -0.08566792
0000e0 c4 df 6f 3e c2 4d 02 3d e2 81 44 bc 15 1f 42 bc
       0.23425204 0.031812437 -0.011993857 -0.011848231
0000f0 44 58 19 be 71 76 1b 3e 47 76 77 bb 97 dc 55 3d
       -0.14975077 0.151819 -0.0037759708 0.052212324
000100 cc 06 83 bd 5d 8d 91 3c 82 52 5b be 56 5f 67 3e
       -0.06397781 0.017767603 -0.21418193 0.22594962
000110 60 ea be 3b fc 7b 92 bd 05 a5 2b bd d5 1f e8 3d
       0.0058262795 -0.071525544 -0.04190542 0.113341965
000120 45 58 9c bd 4a 44 20 3e 3c d4 86 bd cd f6 f7 be
       -0.076340236 0.1565105 -0.06583449 -0.48430482
000130 5f 47 11 be 60 db 14 3f bd 41 b0 3d d0 24 46 be
       -0.14187382 0.5814724 0.086062886 -0.1934998
000140 7c 08 10 3e 69 65 a6 bc 41 06 c7 3d c7 dd 6f bd
       0.14065737 -0.020312028 0.0971799 -0.058561113
000150 46 e1 09 be 1d ab ce bd 99 81 0a 3e 00 7a dd 3d
       -0.13464841 -0.10091231 0.13526 0.10814285
000160 0b 61 45 bd 09 69 9b bd 41 1e 20 3e 90 ec dd bd
       -0.04818825 -0.07588393 0.15636541 -0.10836136
000170 55 ab 09 be bf 07 94 3d fa 99 3f bd 8a 50 2b 3d
       -0.13444264 0.0722804 -0.046777703 0.041824855
000180 aa cb 4f 3d 9a 68 25 bd 74 c4 16 3d 38 ea f5 3c
       0.05073134 -0.04038296 0.036808446 0.03001891
000190 ec 33 06 bf 89 8f 68 be fd aa be ba f6 8d 4d be
       -0.52422976 -0.22711004 -0.0014546808 -0.20073685
0001a0 07 68 4a 3d f5 bf f5 3e fa b6 c8 bd 3c 32 09 3f
       0.049415614 0.47998014 -0.09800525 0.53592277
0001b0 d3 05 a5 3e f5 ae 98 be f1 ee 80 3e ce 6e 85 bd
       0.32231006 -0.29820982 0.25182298 -0.06515275
0001c0 ee 81 95 bd 4d 18 ae 3d 98 42 1e 3c 7a df c6 bc
       -0.07300173 0.08500729 0.009659432 -0.024276484
0001d0 5d d7 93 bd ea a7 81 bb d6 01 99 3d c1 2a 62 bb
       -0.07218812 -0.0039567845 0.07471053 -0.0034510347
0001e0 f9 98 bd 3d 03 64 c3 bb 4c 0b eb bc 97 7e 30 3e
       0.09257693 -0.00596285 -0.02869191 0.1723579
0001f0 7c 88 32 be b5 1e 45 3e 82 ff 9d be 53 06 5b be
       -0.17434877 0.19249995 -0.30859 -0.21389131
000200 e7 19 98 3e 44 06 d6 bd 69 a0 34 3e cf 08 89 be
       0.29707262 -0.10450414 0.17639317 -0.26764533
000210 97 67 9d 3e a7 f0 8d be 40 82 3a be e6 65 e3 bc
       0.30743095 -0.27722666 -0.18213749 -0.02775855
000220 a9 ec 0b bd 27 e1 3a 3e 95 d4 ef 3d a9 30 59 3e
       -0.034161244 0.18249951 0.11710469 0.21209969
000230 29 5d dd 3e 59 b2 8d be cd 38 10 bf 15 a6 b7 be
       0.43235138 -0.2767513 -0.5633667 -0.35868898
000240 34 8d b2 3d 42 d5 c1 bd e5 56 dd bd fe 9a 89 3d
       0.087183386 -0.09464504 -0.108075894 0.067190155
000250 66 bd 60 3e e5 c7 9b 3d 17 c7 fb bc 0b 3a d0 3d
       0.2194725 0.07606486 -0.030734582 0.10167321
000260 e8 4c 07 be d9 06 97 bd 8f 45 18 3e be 86 3b bc
       -0.13212931 -0.07374353 0.14870284 -0.011445699
000270 31 5a a5 bd 16 15 ec 3d 14 cc 05 3d 83 2e c0 bd
       -0.08073843 0.11527459 0.032665327 -0.093838714
000280 d3 d2 21 3e 34 c9 42 bd 33 f9 1f be 29 c9 d4 bc
       0.1580308 -0.047555164 -0.15622406 -0.025974827
000290 fc c5 3e 3e ba 11 06 be 16 00 8e bd 18 4c 2d 3e
       0.18630213 -0.130927 -0.0693361 0.16923559
0002a0 0a 4b 80 be fe e7 f9 3b 0f 53 7c 3d 8a 32 1f be
       -0.2505725 0.0076265326 0.06160265 -0.15546623
0002b0 f4 a3 52 3e c1 08 0b bd 0f 50 64 bf ec 21 d4 bc
       0.20570356 -0.033943895 -0.8918466 -0.025895081
0002c0 fc 68 fa 3e c1 42 dd bc 64 5b 7e bb 1b c6 97 3d
       0.48908222 -0.02700937 -0.0038811797 0.074108325
0002d0 0f d4 95 bc c9 67 81 bd a5 71 93 bd ac 6b 3d 3e
       -0.018289594 -0.063186236 -0.0719941 0.18498105
0002e0 fc 3f ce 3c fb e9 15 be b6 8b ec bd a5 6f 8c 3d
       0.025176995 -0.14640038 -0.11550085 0.06857232
0002f0 50 bb d7 3d 1e 53 22 3e 2d 34 8c bc 9c 51 b3 be
       0.10533774 0.15852019 -0.017114723 -0.350232
000300 0b 90 1e be 1f b9 8f bd 53 42 84 3e fe 23 c3 bd
       -0.15484636 -0.07017731 0.2583185 -0.09528349
000310 67 8c 4b 3c 7f 81 56 bb a6 33 c9 be 28 3b 81 be
       0.012423611 -0.0032730994 -0.39297217 -0.25240445
000320 49 a0 6b be 15 27 e1 bd fb e5 21 3d 30 c3 5c bd
       -0.23010363 -0.109937824 0.039525967 -0.053897083
000330 e4 d4 73 3e 52 74 ce 3e 19 35 99 3e 69 03 b5 bd
       0.2381168 0.4032312 0.29923323 -0.08838541
000340 c1 b3 8a 3e de 37 9b 3d 1e 81 9d 3e 85 d1 58 bd
       0.27090266 0.07579015 0.3076257 -0.05293419
000350 8b a0 5f bc c2 13 aa bd 5c d5 9c 3d d4 4c 98 3d
       -0.013649116 -0.0830455 0.076578826 0.07436529
000360 6c c5 c2 bd 1b 4c 37 3d 39 c0 dc 3d f1 43 a4 bb
       -0.095103115 0.044750314 0.10778851 -0.005012982
000370 c9 93 a6 3d 62 ef e5 bd 23 ff 63 3e e7 65 82 3e
       0.081336565 -0.11227299 0.22265296 0.2546837
000380 a4 cc 07 bf d4 08 3c 3b a6 49 0a 3d 4c 40 d6 3c
       -0.5304663 0.0028691785 0.033761643 0.026153706
000390 42 41 bf 3d c4 28 a6 3e e6 de db be c8 53 11 3e
       0.09338619 0.32452977 -0.42943496 0.14192116
0003a0 26 03 96 be cf 1f d6 3d 0c cb 45 3d 03 e9 2b be
       -0.29299277 0.10455286 0.048289344 -0.16788106
0003b0 d2 b0 61 3e c7 09 a2 3d c2 31 b8 bd 7c e2 d6 3c
       0.22040108 0.07912021 -0.089938655 0.026231043
0003c0 90 62 31 bb f3 5e b0 3d 21 f2 05 bb 6a 0f 87 3d
       -0.0027066804 0.0861186 -0.002043851 0.06594737
0003d0 75 7a 97 bc 16 d3 0a be f2 3b ff bc 03 ad 11 bd
       -0.01849101 -0.13557085 -0.031156514 -0.035565387
0003e0 6f 8c 91 bc f5 a5 89 3d 8e 87 65 3d 08 72 0a 3e
       -0.01776716 0.06721107 0.05603748 0.13520062
0003f0 96 ea 71 3d ae ae b7 bd 79 78 81 3e cb b5 9e 3e
       0.05906161 -0.089688644 0.25287226 0.30998072

conv1.bias f4 [16]
000000 e2 11 2c bf 70 ff f1 3f e3 71 c2 3e 3f b9 0d 3f
       -0.67214787 1.8906078 0.37977514 0.5536079
000010 3b ea 14 3f 97 49 41 3c 5c e8 be 3f c8 af 5f 3f
       0.5816991 0.01179733 1.491466 0.87377596
000020 6e c0 9d be f6 c3 d0 3d fd bc 63 3f 1f 03 2f 3f
       -0.30810875 0.101936266 0.8896025 0.6836414
000030 5c df 6b 3f f3 37 c2 3f bd 34 29 3f bc 31 3b bf
       0.92137694 1.5173324 0.660961 -0.73122764

convnorm1.weight f4 [16]
000000 f1 2d a3 3f 70 8f 78 3f 52 e7 fa 3f 6d ef 9a 3f
       1.2748395 0.9709387 1.9601843 1.2104317
000010 ab 43 89 3f 96 8f a0 3f 57 7b 9a 3f 73 f4 5e 3f
       1.0723776 1.2543819 1.206889 0.8709175
000020 61 81 c4 3f 50 80 b6 3f 27 72 d9 3f 6f 85 1c 40
       1.5351983 1.4257908 1.6987962 2.4456441
000030 e3 28 a0 3f dc fa de 3f 72 fa 57 3f 92 30 8d 3f
       1.2512478 1.7420306 0.84366524 1.1030447

convnorm1.bias f4 [16]
000000 ea da 7a be 74 fc 36 3f ba 23 f3 3c 72 1e 6e 3e
       -0.24497572 0.7147896 0.029680122 0.23253801
000010 19 ff b3 3e 2d ab 67 3e d8 b3 94 3e 42 96 16 3f
       0.35155562 0.22623892 0.2904346 0.58823025
000020 9d 95 39 bd 39 c7 56 3e c7 0c c9 3e 51 b0 8a 3e
       -0.045308698 0.20974435 0.3926756 0.27087644
000030 6a 04 0c 3f 5b 10 5a 3e 43 ee 0f 3d 39 b4 58 be
       0.54694235 0.21295302 0.035139333 -0.211625

convnorm1.running_mean f4 [16]
000000 52 f8 bc 42 fd 09 31 42 8f a5 1b 41 ac a5 83 41
       94.485 44.259754 9.72792 16.455894
000010 2c 1f 20 41 36 08 c8 41 09 dc c4 3f aa 72 31 42
       10.00761 25.00401 1.5379649 44.361977
000020 04 cc c4 41 91 70 cf 40 c0 fa e0 40 ea 40 f1 40
       24.599617 6.482491 7.030609 7.539174
000030 43 f0 b2 41 22 34 3e 41 ff e3 9d 41 9a 8b eb 41
       22.367315 11.887728 19.736326 29.443165

convnorm1.running_var f4 [16]
000000 f7 92 0d 45 31 26 19 45 68 4a 5b 43 9e 4f 76 44
       2265.1853 2450.387 219.29065 985.244
000010 35 a9 bd 43 44 20 da 44 cd 47 5b 42 be bd 36 45
       379.32193 1745.0083 54.820118 2923.859
000020 4e b4 54 44 f2 5c 8c 43 93 b6 2b 43 58 22 3b 43
       850.81726 280.72614 171.71318 187.13416
000030 bf a0 73 44 a2 86 a7 43 96 c4 99 44 9a 84 aa 44
       974.51166 335.05182 1230.1433 1364.1438

conv2.weight f4 [128, 16, 3, 3]
000000 aa 51 a3 3d f9 4e 33 3e c8 d9 97 3e 0f b4 fe 3d
       0.079745606 0.17510594 0.2965834 0.12436687
000010 61 57 58 3e 92 a2 73 3e 46 96 c1 3d e6 37 e3 3d
       0.21127082 0.23792484 0.094524905 0.11094646
000020 cc d4 5a 3e 3a 67 55 bc 6d 0d 15 bd e6 dd 71 be
       0.21370238 -0.013025099 -0.036389757 -0.23619804
000030 f2 a4 a7 bc 27 31 24 be 36 26 d4 bd 46 db 36 bd
       -0.020464394 -0.16034375 -0.10358851 -0.04464271
000040 a8 08 2c be b2 0a fa bd e2 93 01 3e 47 2e 57 3d
       -0.16800177 -0.12209071 0.12654069 0.052534368
000050 35 e3 78 bd 8f 64 64 3e db 67 b3 bd 18 b0 c3 bc
       -0.060763557 0.22303985 -0.08760043 -0.023887679
000060 2b fc b7 3e 44 7c 89 bd bb 6e 27 3d dc 7f c8 3c
       0.35934576 -0.06713155 0.040877085 0.02447503
000070 a2 1f 98 be 9f aa d0 3d 55 7c 2a bd f6 78 b9 be
       -0.29711634 0.101887934 -0.04162248 -0.36225098
000080 a6 8e c9 3c fc 25 05 be 40 75 74 be d4 a1 c2 3d
       0.024604153 -0.13002771 -0.23872852 0.095035225
000090 62 a6 95 be 00 06 d0 be 96 6b 9c be 16 51 dc bd
       -0.29228503 -0.40629578 -0.30550832 -0.107576534
0000a0 74 ed ac be cf a6 bc be 93 71 77 be 82 e0 3f be
       -0.33774912 -0.36846015 -0.24164419 -0.18737987
0000b0 77 67 0a be 8d 28 f2 bc 27 8e 1b 3e e8 b2 5b 3d
       -0.13516031 -0.029560352 0.15190946 0.053637415
0000c0 23 20 39 be 33 fd 34 bc 44 23 2f be 86 8a 72 bd
       -0.18078665 -0.0110466955 -0.17103297 -0.059214137
0000d0 c7 17 2c 3e d8 a4 62 3e b4 35 8c be a0 c6 c0 be
       0.16805945 0.22133195 -0.27384722 -0.3765154
0000e0 43 6e f3 bd 9f 71 2d bf 04 56 f2 be da 95 be bc
       -0.11886265 -0.677515 -0.4733125 -0.023264814
0000f0 1f f1 28 bf ef 66 b0 be 40 a1 c4 be af 26 bc bd
       -0.6599292 -0.34453532 -0.38404274 -0.09187066
000100 7f 15 dd bd 24 09 03 be 9c 99 34 be d5 34 64 bd
       -0.10795116 -0.12796456 -0.17636722 -0.055714447
000110 79 84 57 be 0b 9d 80 be e9 94 21 be ad 96 8b be
       -0.21046628 -0.25119814 -0.15779461 -0.27263394
000120 38 39 96 3d ce 8f d3 3d 1a 81 e9 bd 4a cc 8f 3d
       0.07335132 0.10330163 -0.11401577 0.07021387
000130 2b 53 06 be 8c 53 55 bb 36 e3 12 3e ae 8e 4f bd
       -0.13117664 -0.0032551019 0.14344487 -0.05067318
000140 46 ae 4c 3e 8e 0d 22 3e 42 59 a8 3c 2e 09 b6 be
       0.19988355 0.15825483 0.020550374 -0.3555388
000150 34 be 10 bd 2f d9 03 bd 4f 79 0c 3b 85 a2 84 be
       -0.03533764 -0.032189544 0.002143461 -0.25905243
000160 43 5d 49 3e b3 4d c4 bc d5 15 bb bd 3f a1 06 bc
       0.19664483 -0.023962831 -0.091350235 -0.008217155
000170 35 b5 b9 3d ab ab 80 be a1 02 48 3e 0b 90 05 3e
       0.090677656 -0.25130972 0.19532253 0.1304323
000180 bb 38 b9 bd 53 97 5a 3e 31 6f 9d 3e 4c d8 d9 3d
       -0.090440236 0.21346788 0.30748895 0.106369585
000190 02 d3 9f bd f4 90 be be 3c 32 5d 3e 9b a5 5d 3e
       -0.078039184 -0.37219965 0.21601194 0.21645205
0001a0 a1 96 11 be 8f 18 85 3e 3c 38 d7 bd dc c8 24 bc
       -0.14217617 0.259953 -0.10508773 -0.010057654
0001b0 9e ab f8 3c 16 03 e4 bd 90 6a 04 3e c0 31 f8 3c
       0.030355271 -0.11133401 0.12931275 0.03029716
0001c0 ac 45 1b 3d 6f 4b b5 3d b2 5b 54 bd 23 1a 95 bb
       0.03790824 0.088522784 -0.05184526 -0.004550235
0001d0 e0 fd 21 be 76 cf 2f 3d 66 ff a2 3e 19 6b 10 be
       -0.15819502 0.04292246 0.3183548 -0.14103355
0001e0 27 7d 35 3d 9a e6 a0 3e 0d 54 0f be 77 0e fc bd
       0.044308808 0.31425935 -0.13996907 -0.123074464
0001f0 bf b0 ff 3d 91 1b 4c be 57 e2 8a 3d c1 95 2e 3c
       0.124848835 -0.19932391 0.06781452 0.010655821
000200 94 fa 2f 3d 17 51 a3 3d d4 16 13 be 03 e1 b0 bc
       0.04296358 0.07974451 -0.14364177 -0.021591669
000210 59 84 02 3d cd 3a f1 bd e8 7e 8a bd ea 30 8e 3e
       0.031864498 -0.117787935 -0.06762487 0.27771693
000220 b9 9a 8d be 50 99 a8 be c5 77 90 3d 69 d9 13 be
       -0.27657107 -0.32929468 0.07054094 -0.14438404
000230 56 ec 64 be 7b e6 85 bd 82 a5 08 be 14 92 c8 be
       -0.2235578 -0.06538101 -0.13344386 -0.3917395
000240 28 8a a2 bd e2 2f e0 bd c6 8b 2b 3e 57 42 11 3e
       -0.079365075 -0.10946633 0.16752538 0.14185463
000250 32 65 3b bd ba b0 0b be d6 13 84 bd 7c 78 7e bb
       -0.045750804 -0.13641635 -0.06449096 -0.0038829139
000260 0d 5d bf bc 9b 62 8e bd fe b1 a9 3d 77 ab 85 3d
       -0.0233598 -0.06952401 0.082859024 0.06526845
000270 fe cd da 3c 73 3d 7f bc 1b 0c 96 3d 5f e0 14 3e
       0.026709553 -0.0155786155 0.07326528 0.14538716
000280 d5 ff 64 3d af 83 fb bc 01 9c 0d bf 56 0e ed 3d
       0.055908043 -0.03070244 -0.5531617 0.11575
000290 ac a3 cc bc af 79 8a bd ef 0c 5f be ea 71 2c 3d
       -0.024980389 -0.067614906 -0.21782278 0.042100824
0002a0 d0 b8 00 3e d2 80 88 bb a9 75 c3 be 5d ae 54 be
       0.125705 -0.004165747 -0.38175705 -0.2076964
0002b0 22 48 4e be d4 00 8d 3e b0 dc 6a 3e 49 a3 91 3c
       -0.20144704 0.27539694 0.22935748 0.017778056
0002c0 a1 7f b4 bd 62 96 88 be 53 99 bd bd e3 d6 e0 bb
       -0.08813406 -0.26677233 -0.0925776 -0.006861554
0002d0 79 00 94 3d d5 e9 51 be 52 80 84 bd c1 20 56 be
       0.07226653 -0.20499356 -0.06469788 -0.20910932
0002e0 a4 9c bf bd 9d de d1 bd 71 71 49 be b1 a8 2f bd
       -0.09356049 -0.10247538 -0.1967218 -0.042885486
0002f0 de 7f ca be b3 a9 8d 3c ee 4d b2 3d 72 8d e8 3d
       -0.3955068 0.017292833 0.0870627 0.113551036
000300 eb 8d d8 bc 97 fa 2d bd cc fe 99 be 8c 67 29 bf
       -0.02643486 -0.04247531 -0.30077207 -0.66173625
000310 f2 ad 1a bf 7d 13 0f bf 66 88 52 be 25 4a d9 bc
       -0.6042167 -0.5588911 -0.20559844 -0.026524613
000320 83 59 c1 be 32 9f d8 be 6c 3c 09 be f7 d8 8f bd
       -0.37763605 -0.42308956 -0.13401955 -0.07023805
000330 53 a3 bb be 12 17 fa bd e6 0a 7c be 43 50 89 bc
       -0.36648044 -0.122114316 -0.24613532 -0.016761905
000340 a0 2b e6 bd a1 fc c0 bb fd 87 28 be 6c 4a 7a be
       -0.112387896 -0.0058894907 -0.16458125 -0.24442452
000350 4d d2 b0 be b0 bd b2 3d b9 ca 07 3e f6 3e 00 3e
       -0.34535447 0.08727586 0.13260926 0.12524018
000360 12 27 79 be 58 56 28 be b8 80 4c 3e 5e 19 73 3d
       -0.2433131 -0.16439188 0.19970977 0.059350364
000370 09 66 75 be 92 e4 aa 3e 07 65 f7 3c 1e 26 e3 bc
       -0.23964705 0.3337751 0.03019954 -0.027728137
000380 d8 fa 28 be ad 99 c2 bd 9d 54 02 bf 05 8a ac be
       -0.1650194 -0.095019676 -0.5091036 -0.3369905
000390 d4 92 4b bd 6a c8 1a 3e f9 8e 78 be d8 b4 bd bd
       -0.049700573 0.15115514 -0.2427329 -0.09263009
0003a0 83 8c 14 be 64 9f d5 3d d9 78 64 3e 56 d8 98 3e
       -0.14506726 0.10430792 0.22311725 0.2985255
0003b0 01 f3 b2 be 8a c3 18 be cc 81 f3 3e 37 aa a5 3b
       -0.34951022 -0.14918342 0.47559965 0.0050556916
0003c0 d2 88 cc 3c d4 45 a0 be f4 b1 f2 3d de 30 31 3e
       0.024967585 -0.31303275 0.11850348 0.17303798
0003d0 9b de 24 3e d9 bb 13 3d c7 e3 b2 be 45 ce 8f be
       0.16100542 0.036067817 -0.34939405 -0.2808706
0003e0 45 d0 3a 3e f4 c4 33 3e 7d 87 4b bc 16 49 85 bc
       0.18243511 0.175556 -0.01242244 -0.016270202
0003f0 83 da c7 bd 4f 9b a3 bb 05 30 ca bc bd ce 11 3e
       -0.09758475 -0.0049928795 -0.0246811 0.1423902

conv2.bias f4 [128]
000000 da 2c 88 be 5c 1f 2d 3e 7e f7 92 3d bc e3 a5 3d
       -0.2659672 0.16906494 0.07176112 0.081000775
000010 23 2a f0 3e 5b c6 50 3f 6f 5d ed 3e 00 d8 6d 3e
       0.46907148 0.81552666 0.46360347 0.23226929
000020 5a db 9a 3e b7 1e 9f 3e 75 b7 f1 3e 5b 9f 89 3e
       0.30245477 0.3107812 0.4721028 0.2687939
000030 76 20 25 3e 77 7c eb 3e dd 73 c8 3e b4 5c a7 3e
       0.16125664 0.45993397 0.39150897 0.32687914
000040 8d 59 3a bf 8e 96 99 3e 82 e8 c6 3d 91 5d 2c be
       -0.72792894 0.29997677 0.09712316 -0.16832568
000050 ac 53 db 3e 74 b4 2b 3f 52 dc 87 3e 67 39 32 3e
       0.42837274 0.67072225 0.2653528 0.1740471
000060 d1 05 15 3f 60 10 d1 3e 8a e7 73 3e ab 1f a6 3e
       0.58212 0.40832806 0.23818794 0.32446036
000070 32 61 80 3e 21 2a 0d 3e b9 c8 17 be 15 06 76 3e
       0.25074154 0.13785602 -0.14822663 0.24025758
000080 62 cd 8a 3d 84 99 e1 3e 91 df 65 3e 06 08 17 be
       0.06777455 0.44062436 0.22448565 -0.14749154
000090 57 d2 13 3e da d6 77 3e 3d 81 aa 3d 5c 60 99 3a
       0.14435707 0.24203053 0.083254315 0.0011701691
0000a0 6c ee 11 3f 6f 0e 06 3e 88 85 6e 3f 7a ba 98 3e
       0.5700443 0.13091443 0.931725 0.2982977
0000b0 40 ba 74 3e cc f0 99 3d 46 55 f2 3d 65 e4 3b 3f
       0.23899174 0.075166315 0.11832671 0.7339538
0000c0 b5 4f 06 3e 51 a2 a7 3e 41 05 f4 3e 83 81 10 bf
       0.13116343 0.32741025 0.47660258 -0.5644762
0000d0 88 65 db 3d 5e 73 f3 3d 8f 37 91 be 90 d4 07 3f
       0.10712725 0.11887239 -0.283627 0.5305872
0000e0 40 f3 1d 3e 76 e0 13 3c ce 5a f6 3e a2 a8 b2 3e
       0.15424824 0.009025684 0.48116153 0.34894282
0000f0 e7 44 54 3f 8d 88 77 3e 06 eb 0a 3f cc 1b b8 3b
       0.82917637 0.24173184 0.5426487 0.005618548
000100 f2 02 a5 3e 79 19 13 3e eb 65 bb 3e db 19 ad bd
       0.3222881 0.14365186 0.36601195 -0.08452197
000110 2d a7 fb be 0b 7b 00 3f 93 c6 e1 3e 2e 59 4d 3f
       -0.49150982 0.5018775 0.44096813 0.802142
000120 70 dd c4 bd 3f 2b f7 3e 96 3c 40 3f ae f2 20 3e
       -0.09612548 0.48275182 0.75092447 0.15717575
000130 99 5e 17 3f c9 05 a0 3f a8 f2 9a be 8d 25 5d 3f
       0.5912872 1.2501765 -0.30263257 0.8638542
000140 d4 cb 84 3e 4f fd 81 3d 35 ce b4 3d 8f 24 e9 3e
       0.2593676 0.06347143 0.08828393 0.45535704
000150 22 3a fd 3d 00 ea b2 3e 4b f3 d9 3e 5c 4b 43 3f
       0.123646036 0.34944153 0.4256843 0.76286864
000160 fc 91 56 3d 90 aa 99 3e e0 80 c9 3e dd d0 1b 3e
       0.052385315 0.3001294 0.39356136 0.15216394
000170 45 f9 4b 3e 4e 5c 8c 3e ab 2f 04 3f bb 19 12 3f
       0.19919308 0.27414173 0.51635236 0.5707051
000180 8d 85 29 3e 44 8a 3c 3e 5f 8b 32 3e 13 37 5f 3e
       0.16554852 0.18412119 0.17435978 0.21798353
000190 52 74 5b 3e 35 47 3c bd f2 40 ad 3e a6 ba b1 3e
       0.21431091 -0.045966346 0.33838612 0.34712714
0001a0 ea db b0 3e e3 e3 99 3f ab eb 7f 3e 91 c2 3b 3c
       0.3454278 1.202267 0.24992244 0.011459962
0001b0 a3 6d 69 3d a9 83 38 3f 0f 73 63 3f 06 9e 81 3f
       0.056989323 0.720759 0.8884744 1.012635
0001c0 ed 51 3b 3f 4c fb aa 3e 32 a3 85 3d d3 c1 4a 3e
       0.73171884 0.3339485 0.06525268 0.198005
0001d0 81 27 b9 3e 9c c9 2d be 88 c7 04 3f 6e dc 93 3e
       0.36162952 -0.16971439 0.5186696 0.28879112
0001e0 3e fa 29 3f b9 d7 65 3e e4 3a 83 3e 80 37 5f 3f
       0.66397464 0.22445573 0.25630867 0.8719406
0001f0 a7 c2 3e 3e 0d 7a ad 3e 54 59 cb 3e 2a f3 41 3e
       0.18628941 0.3388218 0.3971659 0.18940416

linear.weight f4 [17, 128]
000000 94 df a8 be 0e fb ca bc 35 eb 4b be d5 4e 16 be
       -0.32983077 -0.024777915 -0.19913943 -0.1467851
000010 5d cb 32 3e 1f a2 49 3e 5e fd ba 3e 2b c0 92 bd
       0.1746039 0.1969075 0.3652143 -0.071655594
000020 8c 25 37 3c 36 b5 74 be 9e 5b b9 be 80 9f f8 3c
       0.0111783855 -0.23897251 -0.3620271 0.030349493
000030 1c 31 1a 3e 44 c3 a4 3d 13 84 81 be 18 9b 85 be
       0.15057796 0.080450565 -0.25296077 -0.2609489
000040 5a 5c f7 3d 6e 40 83 bd 84 dc d2 3d 61 2d 40 be
       0.120781615 -0.06408773 0.10295966 -0.1876731
000050 ad 0a 9b be 4a 46 53 3c 26 a8 6b bf 39 ba 58 be
       -0.30281582 0.012895176 -0.9205345 -0.21164788
000060 35 66 3a 3c aa 3f ad bd e3 67 41 3e 1f 83 49 b9
       0.011376907 -0.084594086 0.18887286 -0.000192177
000070 14 04 21 3e ac e4 78 3e ed cc 12 3d e4 d0 e0 be
       0.15724212 0.24305981 0.035839964 -0.4390937
000080 b4 ae a5 bd ea e9 6d 3c 20 42 91 be 4d 8e c0 be
       -0.080899626 0.0145211015 -0.28370762 -0.37608567
000090 55 e2 cc bd 5e 97 a3 be e2 52 25 be ef 51 42 be
       -0.10004107 -0.31951421 -0.16144899 -0.18976568
0000a0 7f 1b a0 be f6 d8 53 bd 7c f6 af be 6a b9 27 be
       -0.31270978 -0.051720582 -0.3436774 -0.16379324
0000b0 5a 49 ba 3d cb 35 85 bc 84 05 ad be ad 40 99 bd
       0.09096022 -0.016261002 -0.3379327 -0.07483039
0000c0 3d 80 59 3e 8f 66 d2 3d 75 53 30 be f4 68 67 bd
       0.21240325 0.10273468 -0.17219336 -0.056496575
0000d0 46 fe 8e 3e 4f 88 90 be ee 03 f5 3d ac c3 bb be
       0.2792837 -0.28228995 0.1196364 -0.36672723
0000e0 aa a1 ea be cf 10 49 3e f8 3c 09 3e 37 20 5e 3e
       -0.45826465 0.19635318 0.13402164 0.21691976
0000f0 ee d8 b7 bd 51 37 b5 bd 77 11 3e bc 86 ff 77 be
       -0.08976923 -0.088484414 -0.011600844 -0.24218568
000100 8e 8d 8c 3d 4a b6 24 be a2 7e f0 bd 5d 95 ac be
       0.06862937 -0.16085163 -0.11742903 -0.33707705
000110 8e f1 b7 bc 5c 00 82 3d ed a5 55 3e 32 2c 0d bd
       -0.02245405 0.06347725 0.20864077 -0.034465976
000120 87 9c db 3e c9 d2 a4 be 0e 51 0d bf 60 34 30 bf
       0.42892858 -0.32192066 -0.55201805 -0.6882992
000130 66 c5 00 bd 98 73 89 3d a1 cf 1b 3e d1 f9 ef be
       -0.031438254 0.06711501 0.15215923 -0.46870282
000140 c1 16 40 3d 7b a0 5e bd 61 87 86 bd d6 b2 bd 3e
       0.0468967 -0.054352265 -0.0656879 0.37050503
000150 ba 2e ac bd 80 b2 07 bd d9 97 0b 3f d8 a7 ad 3e
       -0.0840735 -0.033129215 0.54528576 0.33917117
000160 0d dc 28 be ac bf 18 be 2f 9b ff 3e ca 1b 9a 3c
       -0.16490193 -0.14916867 0.49923083 0.018812079
000170 17 cb 1c 3e 44 ae 45 be df a3 3a bb e0 72 fa 3d
       0.15311848 -0.19304758 -0.0028479022 0.12228942
000180 5e ee 49 be 96 2e 71 be 1a 39 42 be 6e ec 85 3e
       -0.19719836 -0.23552927 -0.18967095 0.26156944
000190 0f e9 c6 be a2 65 6c be d9 8f 1a bd a3 8b b0 be
       -0.38849685 -0.23085645 -0.03773484 -0.34481534
0001a0 88 18 76 3e a7 42 38 3e fb 20 f3 be ad 03 e4 3d
       0.24032795 0.17994176 -0.474861 0.111335136
0001b0 a1 bc 01 bf c8 e4 7b be 5e 07 eb 3e 92 6c 59 bf
       -0.5067845 -0.24598992 0.45904058 -0.8493129
0001c0 c1 9b 4c be 15 33 2e bf a1 cb 56 be f9 84 fa bd
       -0.1998129 -0.68046695 -0.20976116 -0.12232394
0001d0 35 1b 4f 3e d2 78 a6 3e a1 3c b3 3c 91 98 6d be
       0.20225222 0.32514054 0.021879496 -0.2320273
0001e0 17 e8 95 3e ea bf 83 bd 6c e6 a8 bd 26 27 10 3e
       0.29278633 -0.06433089 -0.082470745 0.14077434
0001f0 7b 23 10 bf 48 de a5 bd 0e a8 1b be 64 ef 68 be
       -0.5630414 -0.080990374 -0.15200827 -0.2274757
000200 73 de 9d be bf 01 86 be 40 40 69 bd 49 86 ea bd
       -0.30833778 -0.26173207 -0.05694604 -0.11451394
000210 5f 29 82 3e fe 20 48 bf 56 2d 90 3e bf 71 98 3e
       0.2542219 -0.7817534 0.2815959 0.2977428
000220 98 82 05 3d 02 a7 9e 3c 91 97 b6 be 20 74 4f bd
       0.032595247 0.019366745 -0.3566251 -0.050647855
000230 9d 43 78 3e a0 be 69 3d 72 7a da 3e ac 82 0e 3e
       0.24244542 0.05706656 0.42671543 0.13917035
000240 60 97 e0 3d cd ae 6a 3c 61 55 bd bd fa de 71 3e
       0.109663725 0.014323902 -0.092448 0.23620215
000250 10 bc 3d bf 8b ae af bc 4b 09 9c be 37 61 fa bd
       -0.74115086 -0.021445533 -0.3047584 -0.122255735
000260 cc 48 95 3d 94 10 c5 bd 39 86 71 3d 23 37 65 3d
       0.072892755 -0.09622303 0.058965895 0.055960786
000270 2c 61 94 3e 63 28 e4 be 63 22 c1 3d e6 20 11 be
       0.28980386 -0.44562063 0.09430387 -0.14172706
000280 b6 6d 09 bd 3d 13 5d be a0 06 8d 3e 67 5b 38 3e
       -0.033551894 -0.2158937 0.27544117 0.18003617
000290 1e 88 f1 bd 13 14 32 3d 10 db 89 3d 6b ea cc be
       -0.117935404 0.043476176 0.06731236 -0.40022597
0002a0 dc 4d 82 3d b1 aa 20 be fd 68 f2 bc 29 45 6f be
       0.06362507 -0.15690114 -0.029591078 -0.23366226
0002b0 91 ab c0 3e 56 04 05 3e eb f2 f0 bd 85 5b b0 3e
       0.37630895 0.12989935 -0.11765083 0.34444824
0002c0 cb 88 ea be b9 25 82 be ed 03 69 3e be 94 3d bd
       -0.4580749 -0.25419405 0.22755404 -0.04628443
0002d0 13 1b d0 bd 02 fc cb 3e 51 2d 85 be 2c 45 c4 be
       -0.10161414 0.39840704 -0.26011136 -0.38334024
0002e0 0d f1 76 3e 99 ee 83 be 6c fb ed bd 52 ad 13 bf
       0.24115391 -0.25767973 -0.116202205 -0.5768634
0002f0 dc 66 6d 3e 5d bf 46 be 0e 24 68 3e ab 08 51 bc
       0.23183769 -0.19408937 0.22670004 -0.012758414
000300 d6 6d 6a 3e 46 e1 0e 3e 00 3a 2d be a2 61 a9 be
       0.22893462 0.13953122 -0.16916656 -0.330823
000310 8a 4e 31 be 8a 70 cc bd 69 96 35 be 5d 09 c6 3d
       -0.17315117 -0.099824026 -0.17733158 0.09669755
000320 60 49 41 3c 40 19 5f be 12 0e ae be a9 b4 f7 bd
       0.011797279 -0.21786976 -0.3399511 -0.12095005
000330 2b 66 7d 39 30 a2 a3 bc a6 16 66 3e 1a 75 42 3e
       0.00024166021 -0.019974798 0.22469577 0.18989983
000340 a3 25 04 bf c7 a7 c2 3e 1f 1d 85 bb b5 9d cb 3c
       -0.5161993 0.3801863 -0.0040623094 0.024855474
000350 6c 9b 7e 3d 73 df 9a bc 93 ac 25 be 2a bb 3c 3e
       0.06215994 -0.018905377 -0.16179113 0.18430772
000360 48 3a 88 3d 5e b9 05 be 46 61 b9 be e4 6e eb bd
       0.06651741 -0.13058993 -0.36207026 -0.1149576
000370 c0 0a e1 3d 0b 5a 5c bd 60 fa 44 3e bc d2 4f bd
       0.109883785 -0.05379681 0.19236135 -0.05073808
000380 26 d4 36 be 61 9d 82 bd 90 fb 38 be 1f 96 10 be
       -0.17854366 -0.06377674 -0.18064713 -0.14119767
000390 2f a0 38 be 34 b2 88 3e c6 02 8a be 6f 2f c0 3c
       -0.18029855 0.26698458 -0.2695524 0.023460118
0003a0 e3 d6 98 3e 53 ce 3a be 5a 50 78 3e 3b c5 3f be
       0.29851446 -0.18242769 0.24249402 -0.18727581
0003b0 d2 5d 5a 3e b6 53 05 3f c5 a4 a9 be 77 0a 85 be
       0.21324852 0.5208086 -0.33133522 -0.25984547
0003c0 08 bd d5 3e e9 cf 7f bd f3 3a ae bc 1c e6 eb bd
       0.41745782 -0.062454138 -0.021268344 -0.11518499
0003d0 5c e8 66 bf 41 98 56 3e 05 67 a7 bc 5b d9 9c 3c
       -0.901983 0.20956518 -0.020434866 0.019146612
0003e0 8e 38 8c 3e 8a ea ea bd 03 3a 16 3d 3a b9 c0 3d
       0.27386898 -0.11470516 0.036676418 0.09410329
0003f0 0f f9 07 3e 7d 63 9d be 03 7a 32 bd c2 cb ba bd
       0.13278602 -0.30739966 -0.04357339 -0.09120895

linear.bias f4 [17]
000000 58 f0 58 bc 68 cb 33 be 12 c1 e9 3c eb 06 27 bf
       -0.013240896 -0.17558062 0.028534446 -0.6524493
000010 9e 28 c5 bd 3b 10 d6 bd 29 aa 0f bf 1e a4 ca be
       -0.09626888 -0.104523145 -0.5611902 -0.39578336
000020 27 b9 28 3e e0 42 19 bf 35 f9 08 bf 55 a7 31 bd
       0.1647688 -0.5986767 -0.5350526 -0.04337247
000030 8a 85 e6 be f5 d6 de bd 30 4a 31 bf 28 8a 5b be
       -0.45023757 -0.108808435 -0.69253826 -0.21439421
000040 11 45 e3 be
       -0.4438863
